frozen-pb/espcn-128.tflite (tflite, 151020 bytes, 6 tensors)

conv1_bias f4 [64]
0	0xbea4aa01	-0.32160953
1	0x3e8b8c73	0.27255592
2	0x3f76c370	0.96391964
3	0xbc0051a0	-0.007831961
4	0xbdd92ecb	-0.10604628
5	0x3e2b9fdb	0.16760199
6	0xbda8be65	-0.0823944
7	0xbead6c29	-0.33871582
8	0xbe67a51d	-0.2262158
9	0xbe633d5c	-0.22191375
10	0x3eaa766a	0.33293468
11	0xbe03b650	-0.12862515
12	0xbd42ce25	-0.047559876
13	0xbf9961ed	-1.198301
14	0xbd83a672	-0.06428231
15	0xbe30e24f	-0.1727383
16	0x3c8dd331	0.017312618
17	0x3d7f6e3c	0.062360987
18	0x3f60bee8	0.877913
19	0xbdf2a411	-0.118476994
20	0xbad49465	-0.0016218541
21	0xbe092824	-0.13394219
22	0xbf844a84	-1.033524
23	0xbd2b269e	-0.041784875
24	0xbe03f347	-0.12885772
25	0x3eaf3bbb	0.34225258
26	0xbe245014	-0.16046172
27	0xbdd6fefa	-0.10497852
28	0xbe1afb1e	-0.15134856
29	0x3f60d9e0	0.8783245
30	0xbd8130b6	-0.06308119
31	0xbe38d635	-0.18050463
32	0x3dc7a48b	0.09748181
33	0xbd96141e	-0.07328056
34	0x3f0bf3d6	0.5466894
35	0xbe4732d1	-0.19452979
36	0x3d484964	0.048898116
37	0x3f3028f5	0.68812495
38	0xbe9f1263	-0.31068715
39	0xbeff1dcb	-0.49827418
40	0xbdc6fe44	-0.09716466
41	0xbdca8e1c	-0.098903865
42	0xbda2bd3d	-0.079462506
43	0x3eb4a68f	0.35283324
44	0x3ea471ae	0.3211798
45	0x3b864d2d	0.0040985555
46	0xbe974f5b	-0.2955273
47	0xc016fced	-2.3591874
48	0x3ec6233e	0.38698763
49	0x3f1d0a2e	0.6134366
50	0xbec81071	-0.39075044
51	0x3f1906a2	0.59775746
52	0x3f1132f5	0.5671838
53	0x3ca963eb	0.020677527
54	0x3f68b253	0.908971
55	0x3fb50633	1.4142517
56	0xbd3347fe	-0.04376983
57	0x401ed1ac	2.4815474
58	0x40109295	2.2589467
59	0x3f889fb0	1.0673733
60	0xbe5d6275	-0.2161959
61	0x3e0e764b	0.13912313
62	0xbd82ea3a	-0.063923314
63	0xbdb66622	-0.08906199

conv2_bias f4 [32]
0	0xbec3cd02	-0.38242346
1	0xbeff453b	-0.49857506
2	0xbe139f1c	-0.14416164
3	0xbd7bad53	-0.06144459
4	0xbe236baf	-0.15959047
5	0x3ed14005	0.40869156
6	0xbe315472	-0.1731737
7	0xbf0a655d	-0.5406092
8	0xbe7c9101	-0.2466469
9	0xbec3f98c	-0.38276327
10	0x3fa9d5da	1.3268387
11	0xbe5df96d	-0.2167718
12	0xbe0ee535	-0.13954623
13	0xbf16bb44	-0.58879495
14	0xbf02c027	-0.5107445
15	0x3e277e50	0.16356778
16	0xbe164c42	-0.14677528
17	0xbe6e2527	-0.2325636
18	0xbe8bc304	-0.27297223
19	0xbe85a5e4	-0.26103127
20	0xbe948fd4	-0.29015982
21	0xbf2dc683	-0.6788103
22	0xbee0846f	-0.4385104
23	0xbe302454	-0.17201358
24	0xbe30fb81	-0.17283441
25	0xbecfb16f	-0.4056506
26	0xbe90c3de	-0.28274435
27	0xbe531322	-0.20612767
28	0xbde9a6d0	-0.1140877
29	0xbe809f39	-0.25121477
30	0xbe8f00dc	-0.27930343
31	0xbec56572	-0.3855396

conv3_bias f4 [48]
0	0x3ffec3b3	1.9903473
1	0x3f9bc967	1.2170838
2	0x3f1626dd	0.5865305
3	0x40006bbf	2.0065763
4	0x3f9d04fd	1.2267147
5	0x3f177006	0.5915531
6	0x40005619	2.005255
7	0x3f9cd4ad	1.2252403
8	0x3f175590	0.59114933
9	0x3ffe2e7e	1.9857938
10	0x3f9b2bd2	1.2122748
11	0x3f15b225	0.5847495
12	0x4000f98d	2.0152314
13	0x3f9dc512	1.2325766
14	0x3f1857f3	0.595092
15	0x4002fd2e	2.0467029
16	0x3fa07e6a	1.2538579
17	0x3f1b69da	0.6070839
18	0x4002e3a0	2.0451431
19	0x3fa04c32	1.2523253
20	0x3f1b59b6	0.60683763
21	0x4000a5dd	2.0101235
22	0x3f9d1c68	1.2274294
23	0x3f17e573	0.59334487
24	0x40011a3a	2.0172257
25	0x3f9df848	1.2341394
26	0x3f18839b	0.59575814
27	0x4003164b	2.0482357
28	0x3fa0ae31	1.2553159
29	0x3f1b838b	0.60747594
30	0x4002f52f	2.0462148
31	0x3fa07175	1.2534624
32	0x3f1b614d	0.60695344
33	0x4000b7ec	2.0112257
34	0x3f9d41b3	1.2285675
35	0x3f17fd6f	0.59371084
36	0x3fffb94b	1.9978422
37	0x3f9c84aa	1.2227986
38	0x3f16f04a	0.589604
39	0x4000d965	2.0132687
40	0x3f9db809	1.2321788
41	0x3f1821b8	0.5942645
42	0x4000b5a8	2.0110874
43	0x3f9d78e4	1.2302518
44	0x3f17ff06	0.5937351
45	0x3ffedb38	1.991065
46	0x3f9bc945	1.2170798
47	0x3f16688a	0.58753264

f1 f4 [64, 5, 5, 3]
0	0xbf08410f	-0.5322427
1	0xbec485b6	-0.38383263
2	0xbefc6877	-0.4929845
3	0xbeea0ac8	-0.4571135
4	0xbeeb5f28	-0.45971036
5	0xbeef9e57	-0.4680049
6	0xbece6e12	-0.40318352
7	0xbf000e36	-0.50021684
8	0xbeebec2f	-0.4607863
9	0xbedf9a4d	-0.4367241
10	0xbf0dbd5c	-0.55367064
11	0xbf0d4e37	-0.5519747
12	0xbeb776f2	-0.35832936
13	0xbee148b5	-0.44000784
14	0xbeee832d	-0.46584454
15	0xbeede9bf	-0.46467397
16	0xbee590a0	-0.44836903
17	0xbee9cafe	-0.45662683
18	0xbee00ece	-0.43761295
19	0xbf0109cd	-0.5040558
20	0xbf0fdfbe	-0.5620078
21	0xbf050777	-0.51964515
22	0xbf1bd8f7	-0.6087794
23	0xbf1f65be	-0.6226462
24	0xbed97ee6	-0.42479628
25	0xbf05fec1	-0.5234185
26	0xbf0ec9c9	-0.5577665
27	0xbefa3574	-0.48868906
28	0xbef2d3f7	-0.4742734
29	0xbee5384a	-0.44769508
30	0xbefd918c	-0.49525106
31	0xbeefba93	-0.46822032
32	0xbefb5af4	-0.4909283
33	0xbf00e3fb	-0.5034787
34	0xbf1b0ffa	-0.60571253
35	0xbf176180	-0.5913315
36	0xbf12ed1a	-0.5739304
37	0xbf336937	-0.7008242
38	0xbf25fe57	-0.64841217
39	0xbf1b0408	-0.60553026
40	0xbf310e7e	-0.6916274
41	0xbf27502b	-0.653567
42	0xbf142969	-0.57875687
43	0xbf360e67	-0.71115726
44	0xbf32ead2	-0.6988956
45	0xbf10843b	-0.5645177
46	0xbee73b6c	-0.45162523
47	0xbec4b661	-0.38420394
48	0xbeedb8ed	-0.4643015
49	0xbef4bb6d	-0.47799245
50	0xbeebed55	-0.46079507
51	0xbf0fadfa	-0.5612484
52	0xbf1f9bf9	-0.6234737
53	0xbf388116	-0.7207197
54	0xbf16ef34	-0.58958745
55	0xbf2e29ae	-0.6803235
56	0xbf436c2a	-0.7633692
57	0xbf27215b	-0.6528527
58	0xbf246757	-0.64220184
59	0xbf38ee62	-0.72238743
60	0xbeeaefc6	-0.45886058
61	0xbef69ed9	-0.48168066
62	0xbe9f0a96	-0.31062764
63	0xbea0b58c	-0.3138851
64	0xbe2959de	-0.16538188
65	0xbe341c10	-0.1758883
66	0xbf076102	-0.528824
67	0xbedda6b0	-0.43291235
68	0xbebf2588	-0.37333322
69	0xbec3df4a	-0.38256294
70	0xbeaee13d	-0.34156218
71	0xbed17e75	-0.40916792
72	0xbee81fab	-0.4533666
73	0xbec0e63a	-0.3767565
74	0xbeae5f08	-0.34056878
75	0xbea1f92b	-0.31635413
76	0xbead1d54	-0.33811438
77	0xbeed9cf8	-0.4640882
78	0xbf497f84	-0.787102
79	0xbf03fb26	-0.515551
80	0xbe9e15ae	-0.30875915
81	0xbf0e697e	-0.5562972
82	0xbefda8a8	-0.49542737
83	0xbd587566	-0.052846335
84	0x3ebdaab3	0.37044296
85	0x3e266a49	0.16251482
86	0x3e1b1c00	0.151474
87	0x3f703ec4	0.9384577
88	0x3f350e97	0.7072539
89	0x3f0f62d7	0.5601019
90	0xbf0d6fe6	-0.5524887
91	0xbec3a7e8	-0.3821404
92	0xbea10398	-0.31448054
93	0xbf316bc0	-0.6930504
94	0xbeb58ce9	-0.35459068
95	0xbe73d1a3	-0.23810439
96	0xbf93455b	-1.1505541
97	0xbf4edc85	-0.80805236
98	0xbf3bc481	-0.73346716
99	0xbfa219ef	-1.2664164
100	0xbf711369	-0.9417024
101	0xbfb518e6	-1.4148223
102	0xbf4c50ad	-0.798106
103	0xbf603212	-0.875764
104	0xbf139845	-0.5765422
105	0xbe8123a1	-0.25222495
106	0xbf16eb1a	-0.58952487
107	0xbf3150b5	-0.69263774
108	0xbe8c2616	-0.27372807
109	0xbee284fb	-0.4424208
110	0xbf408851	-0.75208
111	0xbf6df286	-0.92948186
112	0xbf2242cf	-0.6338319
113	0xbf6e4852	-0.930791
114	0xbf7be159	-0.9839073
115	0xbeeedbc4	-0.46652043
116	0xbf16fdbb	-0.5898091
117	0xbfacddf2	-1.3505232
118	0xbf2ae6c3	-0.66758364
119	0xbedeb679	-0.4349859
120	0xbd889df8	-0.06670755
121	0xbe813fe3	-0.25244054
122	0xbee884a6	-0.45413703
123	0xbdd9c2c2	-0.1063285
124	0xbeaec8f5	-0.34137693
125	0xbef4bc0a	-0.47799712
126	0xbefed1b1	-0.49769357
127	0xbecc9325	-0.39956012
128	0xbf14aa2d	-0.5807217
129	0xbec23289	-0.3792918
130	0xbcce59c5	-0.02518929
131	0xbca569cb	-0.020192048
132	0xbe4d8d5e	-0.20073459
133	0x3e2339b7	0.15939985
134	0xbd8b7277	-0.06808942
135	0x3dfd1d5f	0.12359118
136	0xbe84f4ab	-0.25967917
137	0xbe754b22	-0.23954442
138	0x3e46a4e4	0.19398838
139	0xbdfd8e47	-0.12380653
140	0xbe963e15	-0.2934424
141	0xbe6c125d	-0.2305388
142	0xbf10d611	-0.5657664
143	0xbf188aaf	-0.59586614
144	0xbef70e1f	-0.4825296
145	0xbec578c8	-0.3856871
146	0xbe5aeb18	-0.21378744
147	0xbec47bac	-0.38375604
148	0xbec2bb19	-0.3803337
149	0xbec49174	-0.38392222
150	0x3e6e43e1	0.23268081
151	0x3d31be38	0.043394297
152	0xbf08d282	-0.5344621
153	0x3dfd57ed	0.12370286
154	0x3d1c7a0e	0.038202338
155	0xbec1e88a	-0.37872726
156	0xbe459078	-0.19293392
157	0x3e43ddc7	0.1912757
158	0xbdc43e1f	-0.09582161
159	0xbe3425c8	-0.17592537
160	0x3d49f0c4	0.049301878
161	0x3e2854e9	0.1643864
162	0xbe6a953d	-0.22908492
163	0xbd99ea1b	-0.07515355
164	0x3d31f73e	0.04344868
165	0x3e808763	0.25103292
166	0x3e985e18	0.29759288
167	0xbf1c6e2f	-0.61105627
168	0x3e841c9a	0.2580307
169	0x3a809ee4	0.0009812978
170	0xbfa7a73d	-1.3097912
171	0xbcba1ccb	-0.022718808
172	0x3e7b46c1	0.24538709
173	0xbee275ca	-0.4423049
174	0xbdfbce8f	-0.12295257
175	0x3e7b4e99	0.24541701
176	0xbcb898ee	-0.02253386
177	0xbe299bfd	-0.16563411
178	0x3e247286	0.16059312
179	0x3c37a309	0.011208304
180	0xbdb9ca19	-0.0907175
181	0x3ccdef4d	0.025138522
182	0xbf1f4378	-0.62212324
183	0xbe5f5a13	-0.21811704
184	0xbe9f2ee9	-0.31090477
185	0xbfc08bdb	-1.504268
186	0xbdd2ebfd	-0.102989174
187	0x3e85d26d	0.26137105
188	0xbe94179a	-0.28924257
189	0x3d20f9ce	0.039300732
190	0x3e4595f6	0.19295487
191	0xbf0168ff	-0.50550836
192	0xbe408fb7	-0.18804823
193	0x3e36cf46	0.17852506
194	0xbded229d	-0.115788676
195	0x3e44a67e	0.19204137
196	0x3ead9f76	0.33910722
197	0xbe008459	-0.12550487
198	0xbf1817c4	-0.59411263
199	0xbfa20756	-1.2658489
200	0xc004676c	-2.0688124
201	0xbc2ecf3f	-0.0106695285
202	0xbf07ed17	-0.53096145
203	0xbfd19a73	-1.6375259
204	0x3f0e1ae8	0.55509806
205	0xbe0154ec	-0.12630051
206	0xbf9d8c87	-1.230851
207	0x3e48fefb	0.19628517
208	0xbd9d4f46	-0.07681136
209	0xbec7e58a	-0.39042312
210	0x3ed62255	0.41823068
211	0x3f35ca9c	0.7101228
212	0x3e90826e	0.2822451
213	0xbea36e05	-0.31919876
214	0xbe70c4ec	-0.2351262
215	0xbf0d66a4	-0.5523474
216	0xbe944c03	-0.28964242
217	0x3e450e5f	0.19243763
218	0xbed15992	-0.4088865
219	0x3d9b4ba3	0.07582786
220	0x3e8840dc	0.26611984
221	0xbee53e5a	-0.44774133
222	0x3df47d39	0.11937947
223	0x3dd2208d	0.10260115
224	0xbedf5a2d	-0.43623486
225	0xbef4dd6f	-0.4782519
226	0xbef58ad7	-0.4795749
227	0xbec8b9a6	-0.3920414
228	0xbf0c7cf7	-0.5487818
229	0xbef13507	-0.4711077
230	0xbf029db1	-0.5102187
231	0xbeee5d05	-0.46555343
232	0xbf0b9526	-0.5452446
233	0xbeedf634	-0.464769
234	0xbf0cd8c0	-0.55018234
235	0xbef77314	-0.48329985
236	0xbef8d954	-0.48603308
237	0xbf0f5e97	-0.5600371
238	0xbf0a90a5	-0.5412696
239	0xbef20675	-0.4727055
240	0xbf2e55e6	-0.6809982
241	0xbf24445c	-0.6416681
242	0xbf183bfb	-0.5946652
243	0xbf2117ab	-0.6292674
244	0xbf037749	-0.5135389
245	0xbf256682	-0.6460954
246	0xbed38ff9	-0.4132078
247	0xbf0acf56	-0.5422262
248	0xbf078599	-0.5293823
249	0xbf1d27ce	-0.6138886
250	0xbf00792b	-0.5018489
251	0xbefa4ab0	-0.48885107
252	0xbf1580b5	-0.58399516
253	0xbf00cace	-0.50309455
254	0xbf00436f	-0.50102895
255	0xbf01695e	-0.505514

f2 f4 [32, 3, 3, 64]
0	0x3b06f322	0.0020591696
1	0xbd6f2707	-0.05838683
2	0x3c8050c6	0.015663516
3	0xbdf911a4	-0.12161568
4	0x3d024342	0.031802423
5	0xbcef95af	-0.02924618
6	0xbcfff90c	-0.031246684
7	0xbcd93ffd	-0.02651977
8	0xbe080b69	-0.13285603
9	0xbd3b9006	-0.04579165
10	0xbc9cfcb9	-0.019163476
11	0xbdd32102	-0.1030903
12	0xbdc40b3c	-0.09572455
13	0xbd47694a	-0.048684396
14	0xbdc1310d	-0.09433184
15	0xbdeb82fa	-0.11499591
16	0x3d49c492	0.04925973
17	0x3d55d635	0.052206237
18	0xbdbd707a	-0.09249969
19	0xbd51f3f0	-0.051258028
20	0xbd0eff11	-0.03491122
21	0xbe1a4829	-0.1506659
22	0xbdf8b54b	-0.12143954
23	0xbcd3842f	-0.025819866
24	0xbdaf304b	-0.08554133
25	0xbc007d4d	-0.007842374
26	0x3c14211a	0.009041095
27	0xbda29744	-0.07939008
28	0xbc9b7dfe	-0.018980976
29	0xbea1a8d0	-0.31574106
30	0xbd9228e6	-0.07136707
31	0xbd84ab8e	-0.06478034
32	0xbd13880a	-0.03601841
33	0x3ca5c310	0.020234615
34	0xbd6b14e6	-0.057392977
35	0xbc167ccf	-0.00918503
36	0xbde27774	-0.1105794
37	0xbd7098d5	-0.058739502
38	0xbdd94d83	-0.10610487
39	0xbdd860bc	-0.105653256
40	0xbdad5056	-0.084625885
41	0x393ab347	0.00017805128
42	0xbd5734e1	-0.052540664
43	0xbce7fb74	-0.028318144
44	0xbd98b7a4	-0.07456902
45	0xbc19203f	-0.009346067
46	0xbdc4146c	-0.09574208
47	0xbd378fd0	-0.044814885
48	0xbd2c83e8	-0.042117983
49	0xbd060a19	-0.032724474
50	0xbd9425cc	-0.07233772
51	0xbd095241	-0.03352571
52	0x3be85a15	0.0070908167
53	0xbdcbd550	-0.099527955
54	0xbdfff5d7	-0.12498062
55	0xbc893601	-0.016749384
56	0xbcc923fb	-0.02455329
57	0xbd9b6331	-0.07587279
58	0xbe0cede3	-0.13762622
59	0xbd951b17	-0.072805576
60	0x3b9a3b2b	0.0047067604
61	0x3cd1c5f1	0.025607081
62	0xbd5f3bd0	-0.0545004
63	0x3d287f05	0.04113676
64	0xbd9a7c4b	-0.07543238
65	0xbc481037	-0.012210897
66	0xbd80da5e	-0.0629165
67	0x3d042011	0.032257143
68	0xbc2e7d22	-0.010649951
69	0xbdcd0c91	-0.100121625
70	0xbcd9df72	-0.026595805
71	0xbcb00f36	-0.021491628
72	0x3a426788	0.000741594
73	0xbde0dd2c	-0.10979685
74	0x3d4b8b1a	0.049693204
75	0xbd00aea8	-0.031416565
76	0xbd2a9ee7	-0.041655447
77	0xbde8690d	-0.11348162
78	0xbba91f0c	-0.005161172
79	0xbd9373f9	-0.071998544
80	0x3c383b88	0.011244662
81	0x3ce9f763	0.028560346
82	0xbd972a5b	-0.073811255
83	0xbc4c1a7d	-0.012457487
84	0x3d055072	0.03254742
85	0xbdb35af5	-0.08757583
86	0xbdaa4757	-0.08314388
87	0xbd639b98	-0.055568308
88	0xbdb61a93	-0.088917874
89	0xbd2c7e89	-0.04211286
90	0xbce23aa8	-0.02761586
91	0x3d759a6a	0.059961714
92	0x3d034549	0.032048497
93	0xbec92263	-0.39284047
94	0x3d0eb12d	0.034836937
95	0xbdb17684	-0.08665183
96	0x3c040994	0.008058924
97	0xbc705040	-0.014667571
98	0x3d84e9af	0.06489884
99	0xbdafeb37	-0.085897855
100	0xbd720597	-0.059087362
101	0xbb3440e3	-0.0027504496
102	0xbd717433	-0.058948707
103	0xbe0fe94d	-0.14053841
104	0xbc84fbe2	-0.016233388
105	0x3d53bbe5	0.051692862
106	0xbdce6710	-0.10078251
107	0xbc95fe75	-0.018309811
108	0xbde8fdb2	-0.113765135
109	0xbd6f29a8	-0.058389336
110	0xbd95e07e	-0.07318209
111	0xbdfcead2	-0.12349476
112	0xbdc0f377	-0.09421437
113	0x3c78196e	0.015142782
114	0xbd61c6d4	-0.055121258
115	0xbdb030ff	-0.08603095
116	0xbd639eea	-0.055571474
117	0xbe13ad61	-0.14421608
118	0xbe2420e7	-0.16028176
119	0xbd6aebbe	-0.057353728
120	0xbdfd63ff	-0.12372588
121	0xbdd8bc44	-0.10582784
122	0xbdf05f5a	-0.11736937
123	0xbc1de417	-0.0096369
124	0xbd102d4d	-0.035199452
125	0x3c8ae789	0.016956108
126	0xbc2acdcf	-0.010425045
127	0x3a4bba39	0.0007771585
128	0xbdcedcdf	-0.101007216
129	0xbdf5fd63	-0.1201122
130	0xbdb678d0	-0.08909762
131	0x3c924da0	0.01785928
132	0xbc250fea	-0.010074595
133	0xbca6be6e	-0.020354476
134	0x3ca93ac3	0.020657903
135	0xbd8b196b	-0.067919575
136	0xbda3ff63	-0.080076955
137	0xbd91a55a	-0.071116164
138	0xbd6fc92d	-0.058541466
139	0xbc60836d	-0.013703209
140	0xbcb01631	-0.021494957
141	0xbd71b2fc	-0.059008583
142	0xbe039cfd	-0.12852855
143	0xbde1f456	-0.110329315
144	0xbcfccd16	-0.030859511
145	0xbba85f78	-0.005138334
146	0xbdd8f776	-0.105940744
147	0x3c4eec31	0.012629555
148	0xbb811f69	-0.003940512
149	0xbd0ba0a9	-0.034088764
150	0xbdd766d9	-0.105176635
151	0xbcb84fce	-0.022498991
152	0xbd823085	-0.063569106
153	0xbe59dccd	-0.21275635
154	0xbd9befdb	-0.07614108
155	0x3c83bf71	0.016082497
156	0xbdb5400b	-0.08850106
157	0xbe94d3da	-0.2906788
158	0x3d170e1b	0.036878686
159	0xbdc0b2cd	-0.094091035
160	0xbdce778f	-0.10081398
161	0xbdabeb1b	-0.08394452
162	0xbc839f5c	-0.0160672
163	0xbd9953d1	-0.0748669
164	0xbd52f01e	-0.051498525
165	0xbdb806c8	-0.089856684
166	0xbdb88b51	-0.090109475
167	0xbdd12684	-0.102124244
168	0x3c67bbdf	0.014143913
169	0xbdb825fa	-0.089916185
170	0xbdb18532	-0.08667983
171	0xbb922db3	-0.004461014
172	0x3c50e33f	0.012749492
173	0xbe032a60	-0.12809134
174	0xbbb4bc8f	-0.005515642
175	0xbccfd814	-0.025371589
176	0xbdd07e59	-0.10180349
177	0xbdc1ab64	-0.09456518
178	0xbddbb0ed	-0.10727105
179	0x3cfdcc91	0.030981334
180	0xbdb46323	-0.08807971
181	0xbdb360cd	-0.08758698
182	0xbda78460	-0.081795454
183	0x3ce8d3db	0.028421333
184	0xbc6dac97	-0.014506481
185	0xbdefbe26	-0.1170619
186	0xbe10fbfa	-0.14158621
187	0xbd3e3968	-0.046441466
188	0xbd2d9046	-0.042373918
189	0x3d4cf915	0.05004223
190	0xbb1b45e2	-0.0023692776
191	0x3d91719e	0.07101749
192	0x3b431a4b	0.002977031
193	0xbd8f96b6	-0.07011168
194	0xbc7e8de4	-0.015536759
195	0xbd98fc16	-0.074699566
196	0x3d132583	0.035924446
197	0x3c9c9087	0.019111885
198	0x3bf6a719	0.007527244
199	0xbd46224f	-0.048372563
200	0xbe025ca4	-0.12730652
201	0x3d248191	0.040162627
202	0x3be07196	0.006849478
203	0xbd86c181	-0.06579877
204	0xbdd16415	-0.10224167
205	0xbd0100f2	-0.031495042
206	0xbc7b5ec0	-0.015342414
207	0x3c168972	0.009188043
208	0x3d0075b8	0.031362265
209	0xbcf67b54	-0.030088104
210	0xbc30c091	-0.010788099
211	0xbdc06177	-0.0939359
212	0x3c1c1b5d	0.009528008
213	0xbd8d9735	-0.06913606
214	0xbe066f82	-0.13128474
215	0xbda742bf	-0.08167028
216	0xbd907d19	-0.070551105
217	0xbeb06e2b	-0.3445905
218	0xbc296b18	-0.010340475
219	0xbd660a4a	-0.056162156
220	0x3c8e3127	0.017357422
221	0xbe962583	-0.29325494
222	0x3c64e108	0.013969667
223	0xbde2338e	-0.110449895
224	0xbdeba754	-0.11506525
225	0xbd8c3876	-0.068467066
226	0x3d1b8137	0.037965026
227	0xbe0c3fb5	-0.13696177
228	0xbd525464	-0.051350012
229	0xbd61b108	-0.05510047
230	0xbc679f3e	-0.014137087
231	0xbde59287	-0.112095885
232	0xbcfb791b	-0.030697396
233	0xbd52f086	-0.051498912
234	0xbdc0ab41	-0.09407664
235	0xbd2edc1d	-0.042690385
236	0x3cf4ed3c	0.029898278
237	0xbdf10533	-0.1176857
238	0xbdc2442b	-0.09485658
239	0xbd23d141	-0.039994482
240	0xbd276942	-0.040871866
241	0xbd343bdb	-0.044002395
242	0xbca2329d	-0.019799525
243	0xbc9c8fb7	-0.019111497
244	0xbd88a22a	-0.06671555
245	0xbe0ffdfc	-0.14061731
246	0xbeb3c2c1	-0.35109523
247	0x3c045806	0.008077627
248	0xbc047c8d	-0.008086336
249	0xbe11ba1b	-0.1423115
250	0xbdda282e	-0.10652195
251	0xbc5a2479	-0.01331436
252	0xbbb5bbd3	-0.005546072
253	0x3d23d6d1	0.039999787
254	0xbdca8611	-0.098888524
255	0x3c923b10	0.017850429

f3 f4 [48, 3, 3, 32]
0	0xbbd2ca53	-0.0064328103
1	0x3dbc7bfb	0.09203335
2	0xbd87a494	-0.06623188
3	0x3da7fe28	0.08202773
4	0xbdf605d0	-0.120128274
5	0xbdb6061a	-0.088878825
6	0xbd82df19	-0.06390209
7	0x3cbc0bf6	0.022954922
8	0xba722db0	-0.00092383754
9	0x3de1a0d8	0.11017007
10	0x3dd30ca8	0.10305148
11	0xbe6c1a1f	-0.2305684
12	0xbe22cb8e	-0.15897962
13	0x3dc048f1	0.093889125
14	0x3d99dffc	0.07513425
15	0x3cedd065	0.029030034
16	0xbc961d94	-0.01832465
17	0x3ec31d01	0.38108066
18	0xbd8a92d9	-0.0676629
19	0xbc842988	-0.016133085
20	0x3dd2ffb7	0.1030268
21	0x3d7b9d3b	0.061429244
22	0x3d9a15b4	0.07523671
23	0xbecb59fb	-0.39717087
24	0xbe62e0fa	-0.22156134
25	0x3c24d260	0.010059923
26	0x3df84fe2	0.121246114
27	0x3dfeb540	0.124369144
28	0x3d2b8467	0.041874316
29	0xbe479155	-0.19489034
30	0xbd2e5ca7	-0.04256883
31	0x3dd1f314	0.102514416
32	0xbd88b633	-0.06675377
33	0x3dc4d3e8	0.096107304
34	0xbe106d2b	-0.14104144
35	0x3d771c54	0.06032975
36	0xbde9ceff	-0.114164345
37	0xbde571c8	-0.11203343
38	0xbdc58f4f	-0.096464746
39	0x3d2fbe16	0.04290589
40	0x3d97fb5c	0.0742099
41	0x3dd25df9	0.1027183
42	0x3c1892e1	0.009312362
43	0xbe4d12bc	-0.20026678
44	0xbdb2718a	-0.08713062
45	0xbdff3d4d	-0.12462864
46	0x3d84f52e	0.06492077
47	0xbdd23931	-0.10264815
48	0xbd9024ca	-0.07038267
49	0x3eac77d3	0.3368517
50	0x3da77401	0.08176423
51	0x3e0f5710	0.13998055
52	0x3e0923cc	0.13392562
53	0x3d91c6a6	0.07117967
54	0x3dddf9a8	0.10838634
55	0xbeb65ade	-0.356162
56	0xbe0f8bfc	-0.14018244
57	0x3c7af2fd	0.015316722
58	0x3deb6ea2	0.11495711
59	0xbb28b9fe	-0.0025745626
60	0xbc5370e8	-0.012905337
61	0xbeacf0db	-0.33777508
62	0x3deb0ad1	0.114766724
63	0x3e848476	0.2588231
64	0xbde0c181	-0.10974408
65	0x3dae6326	0.08515005
66	0x3cdac29d	0.026704127
67	0x3d31388f	0.04326683
68	0xbd0c35b3	-0.0342309
69	0x3dfa17f2	0.122115985
70	0xbe51dbec	-0.2049405
71	0xbe8d5ee0	-0.27611446
72	0x3c9f517d	0.019448036
73	0x3d27b37d	0.040942658
74	0x3d6b12a1	0.057390813
75	0xbe719249	-0.2359096
76	0xbda2dfc7	-0.079528384
77	0xbde8e903	-0.113725685
78	0xbb97eebd	-0.004636614
79	0x3cb4223a	0.021988977
80	0xbd5e1ce6	-0.05422678
81	0x3edb3e4a	0.4282096
82	0x3d32feab	0.0436999
83	0x3cc3483e	0.023838159
84	0x3dc835f9	0.097759195
85	0x3dbbac24	0.091636926
86	0x3d554e25	0.052076478
87	0xbe80dc3d	-0.25168028
88	0xbe7db182	-0.24774745
89	0xbac01d70	-0.001465721
90	0x3e18b9c5	0.14914615
91	0xbc3e8dcc	-0.011630487
92	0x3ce8e9ab	0.028431734
93	0xbe2ff674	-0.17183858
94	0x3cabd794	0.02097682
95	0x3ea4a0b5	0.3215386
96	0x3d4a9d6b	0.04946653
97	0x3e092bf8	0.13395679
98	0xbd88b26c	-0.06674656
99	0x3ca45bcb	0.020063302
100	0xbe15f30f	-0.14643501
101	0xbe142201	-0.14466096
102	0xbe559f6a	-0.20861593
103	0xbc9a0e3e	-0.01880562
104	0x3cb1a78a	0.021686334
105	0x3c433b7d	0.011916039
106	0xbda8da21	-0.0824473
107	0xbe78c835	-0.24295123
108	0xbe0dc65a	-0.13845196
109	0xbd48025b	-0.04883037
110	0x3d6b77df	0.057487365
111	0x3d909920	0.07060456
112	0xbd82a2af	-0.06378686
113	0x3ec586e1	0.38579467
114	0x3d5d01ea	0.053956904
115	0xbca88ba8	-0.020574406
116	0x3d98b03b	0.07455488
117	0xbd1266d2	-0.03574259
118	0x3d98984e	0.07450925
119	0xbec01e0d	-0.37522927
120	0xbe03dee6	-0.12877998
121	0x3e1a2589	0.15053381
122	0xbc57b8d3	-0.013166624
123	0x3d67281d	0.05643474
124	0x3c8e3177	0.017357571
125	0xbe8fff5e	-0.28124517
126	0xbdae9d35	-0.085260786
127	0x3e57d671	0.21077897
128	0x3d1d34ee	0.038380556
129	0x3d752f49	0.059859548
130	0xbd10647e	-0.035252087
131	0xb9a061b1	-0.00030590364
132	0xbe3fe393	-0.18739156
133	0xbe786c87	-0.2426015
134	0xbdce268d	-0.10065947
135	0xbdb8d0e7	-0.0902422
136	0xbbd506ac	-0.0065010395
137	0x3e0cd26b	0.13752143
138	0xbf0d8975	-0.5528787
139	0xbe0e134f	-0.13874553
140	0xbde2ab34	-0.11067811
141	0xbd2aa5b1	-0.041661922
142	0x3dc4e200	0.096134186
143	0xbdf881ae	-0.121341094
144	0xbd1b8607	-0.037969615
145	0x3eaee76e	0.34160942
146	0xbd1a6981	-0.037698273
147	0x3db6afef	0.089202754
148	0x3ceaf8b0	0.028683037
149	0x3abbbd64	0.001432341
150	0x3c65ee1f	0.014033823
151	0xbeb68223	-0.3564616
152	0xbe70ab4a	-0.23502842
153	0x3d4033e6	0.046924494
154	0x3dd7001f	0.1049807
155	0x371a99ce	9.214926e-06
156	0x3e1d217b	0.15344803
157	0xbe99a4b2	-0.30008465
158	0xbaf533a9	-0.0018707413
159	0x3f0d915a	0.55299914
160	0x3b3b5390	0.0028583743
161	0x3de7fc9f	0.113274805
162	0x3e0d9051	0.13824584
163	0x3db8799b	0.090075694
164	0xbde259ef	-0.1105231
165	0x3ce41aac	0.02784475
166	0xbe08eeb7	-0.13372312
167	0xbe05cb56	-0.13065848
168	0x3c90c84f	0.01767364
169	0x3e24d870	0.1609819
170	0xbd13bc75	-0.0360684
171	0xbe7083cb	-0.23487775
172	0xbe710fb0	-0.2354114
173	0xbd8a2c9c	-0.0674679
174	0x3de61fb0	0.11236513
175	0xbcc5c6ea	-0.024142701
176	0x3cd77d98	0.026305005
177	0x3ee54922	0.44782358
178	0xbd8d3578	-0.06894964
179	0x3deb4f74	0.11489764
180	0x3ded3e2c	0.11584124
181	0x3e16889c	0.1470055
182	0x3ddb7d97	0.10717314
183	0xbe75d412	-0.2400668
184	0xbe7a733e	-0.24458024
185	0x3cea9b74	0.028638579
186	0x3d569d65	0.052396197
187	0x3c9f8c45	0.019476065
188	0x3d98acd8	0.07454842
189	0xbeaaeb1e	-0.33382505
190	0x3d4a53eb	0.049396437
191	0x3ef0f1b9	0.4705942
192	0xbdc11f9c	-0.09429857
193	0x3d818b6f	0.06325423
194	0xbdb113cb	-0.08646353
195	0x3e09f3c2	0.13471892
196	0xbe22553f	-0.15852831
197	0x3d64237d	0.055697907
198	0xbe4103c7	-0.18849097
199	0xbdaf1fc9	-0.085509844
200	0xbd076699	-0.03305683
201	0x3dfcaad6	0.12337272
202	0x3d9931b7	0.074801855
203	0xbe2d9271	-0.16950394
204	0xbe56ebce	-0.2098839
205	0xbdcf8085	-0.10131935
206	0x3df2e89e	0.118607745
207	0xbc8586bf	-0.016299604
208	0xbdd5aa18	-0.104328334
209	0x3e8ffd14	0.2812277
210	0x3d17efc0	0.037093878
211	0xbd13cc47	-0.036083486
212	0x3da2cd3a	0.079493
213	0x3d869811	0.06571973
214	0x3c5ce322	0.013481887
215	0xbe9d3757	-0.30706283
216	0xbe63e1d3	-0.22254114
217	0x3d76d1a5	0.060258526
218	0x3d2337ad	0.03984802
219	0x3bd364fe	0.006451248
220	0x3e0bd0bc	0.13653845
221	0xbe22d0c5	-0.15899952
222	0x3d3853c7	0.04500177
223	0x3e2c93e6	0.16853294
224	0xbccf4485	-0.025301227
225	0x3e155bde	0.14585826
226	0xbdf59a78	-0.11992353
227	0xbc268819	-0.010164284
228	0xbd98a8c7	-0.07454067
229	0x3c4de837	0.012567571
230	0xbe3bbcc7	-0.18333732
231	0xbdaf0895	-0.08546559
232	0x3db52dee	0.08846651
233	0x3b10c679	0.0022090955
234	0xbb8e785d	-0.0043478445
235	0xbd91fab1	-0.07127894
236	0xbe3fd192	-0.18732288
237	0xbdc8db37	-0.09807437
238	0x3e0d9d15	0.13829453
239	0xbe04e777	-0.12978922
240	0xbc6a336a	-0.014294485
241	0x3e91d074	0.2847935
242	0x3da3516d	0.07974515
243	0x3d87cd81	0.06630994
244	0x3da965e9	0.08271391
245	0xbb99a536	-0.004688884
246	0xbd798dfc	-0.060926422
247	0xbe9a65a2	-0.30155665
248	0xbe3cb5de	-0.18428752
249	0xbdc44f7e	-0.095854744
250	0x3e1d7396	0.15376124
251	0xbc4cf7b2	-0.012510227
252	0x3d82fbf3	0.06395712
253	0xbe8d6f52	-0.27623993
254	0xbd57fd00	-0.052731514
255	0x3efd0919	0.49421003
